…
    "pred = boosting.predict(X_train)\n",
    "metrics.accuracy_score(pred, Y_train)"
   ]
  },
  {
   "cell_type": "markdown",
   "metadata": {},
   "source": [
    "Neural network classifier "
   ]
  },
  {
   "cell_type": "code",
   "execution_count": 13,
   "metadata": {},
   "outputs": [
    {
     "name": "stdout",
     "output_type": "stream",
     "text": [
      "_________________________________________________________________\n",
      "Layer (type)                 Output Shape              Param #   \n",
      "=================================================================\n",
      "dense_1 (Dense)              (None, 512)               4608      \n",
      "_________________________________________________________________\n",
      "activation_1 (Activation)    (None, 512)               0         \n",
      "_________________________________________________________________\n",
      "dropout_1 (Dropout)          (None, 512)               0         \n",
      "_________________________________________________________________\n",
      "dense_2 (Dense)              (None, 512)               262656    \n",
      "_________________________________________________________________\n",
      "activation_2 (Activation)    (None, 512)               0         \n",
      "_________________________________________________________________\n",
      "dropout_2 (Dropout)          (None, 512)               0         \n",
      "_________________________________________________________________\n",
      "dense_3 (Dense)              (None, 4)                 2052      \n",
      "_________________________________________________________________\n",
      "activation_3 (Activation)    (None, 4)                 0         \n",
      "=================================================================\n",
      "Total params: 269,316\n",
      "Trainable params: 269,316\n",
      "Non-trainable params: 0\n",
      "_________________________________________________________________\n"
     ]
    }
   ],
   "source": [
    "model_mlp = Sequential()\n",
    "model_mlp.add(Dense(512, input_shape=(8,)))\n",
    "model_mlp.add(Activation('relu'))\n",
…
